…
Requirement already satisfied: graphviz in c:\users\ysimp\anaconda3\lib\site-packages (0.19.1)
Note: you may need to restart the kernel to use updated packages.
Requirement already satisfied: pydot in c:\users\ysimp\anaconda3\lib\site-packages (1.4.2)
Requirement already satisfied: pyparsing>=2.1.4 in c:\users\ysimp\anaconda3\lib\site-packages (from pydot) (2.4.7)
Note: you may need to restart the kernel to use updated packages.
Model: "sequential_10"
_________________________________________________________________
 Layer (type)                Output Shape              Param #
=================================================================
 embedding_10 (Embedding)    (None, 1000, 10)          100000
 dropout_8 (Dropout)         (None, 1000, 10)          0
 conv1d_18 (Conv1D)          (None, 998, 16)           496
 max_pooling1d_16 (MaxPoolin  (None, 499, 16)          0
 g1D)
 conv1d_19 (Conv1D)          (None, 497, 16)           784
 max_pooling1d_17 (MaxPoolin  (None, 248, 16)          0
 g1D)
 flatten_6 (Flatten)         (None, 3968)              0
 dense_10 (Dense)            (None, 1)                 3969
=================================================================
Total params: 105,249
Trainable params: 105,249
Non-trainable params: 0
_________________________________________________________________
608 260
608 260
608 260
Epoch 1/10
7/7 [==============================] - 1s 37ms/step - loss: 0.6646 - accuracy: 0.6595 - val_loss: 0.8724 - val_accuracy: 0.0000e+00 - _timestamp: 1649073210.0000 - _runtime: 2578.0000
…
